…
{"obj": {"type": "AssignString", "path": ["parameters", "optimizer"], "value": "Adam"}, "version": 20}
{"obj": {"type": "AssignInt", "path": ["parameters", "rnn_units"], "value": 128}, "version": 21}
{"obj": {"type": "AssignInt", "path": ["parameters", "top_classifier_units"], "value": 32}, "version": 22}
{"obj": {"type": "AssignInt", "path": ["parameters", "num_layers"], "value": 1}, "version": 23}
{"obj": {"type": "AssignFloat", "path": ["parameters", "dropout_rnn"], "value": 0.2}, "version": 24}
{"obj": {"type": "AssignString", "path": ["model_architect"], "value": "CreditsRNN(\n  (_credits_cat_embeddings): ModuleList(\n    (0): Embedding(21, 9, padding_idx=0)\n    (1): Embedding(19, 8, padding_idx=0)\n    (2): Embedding(19, 8, padding_idx=0)\n    (3): Embedding(18, 8, padding_idx=0)\n    (4): Embedding(18, 8, padding_idx=0)\n    (5): Embedding(17, 8, padding_idx=0)\n    (6): Embedding(21, 9, padding_idx=0)\n    (7): Embedding(9, 5, padding_idx=0)\n    (8): Embedding(7, 4, padding_idx=0)\n    (9): Embedding(3, 2, padding_idx=0)\n    (10): Embedding(5, 3, padding_idx=0)\n    (11): Embedding(15, 7, padding_idx=0)\n    (12): Embedding(19, 8, padding_idx=0)\n    (13): Embedding(21, 9, padding_idx=0)\n    (14): Embedding(11, 6, padding_idx=0)\n    (15): Embedding(7, 4, padding_idx=0)\n    (16): Embedding(21, 9, padding_idx=0)\n    (17): Embedding(3, 2, padding_idx=0)\n    (18): Embedding(3, 2, padding_idx=0)\n    (19): Embedding(3, 2, padding_idx=0)\n    (20): Embedding(3, 2, padding_idx=0)\n    (21): Embedding(3, 2, padding_idx=0)\n    (22): Embedding(21, 9, padding_idx=0)\n    (23): Embedding(21, 9, padding_idx=0)\n    (24): Embedding(21, 9, padding_idx=0)\n    (25): Embedding(3, 2, padding_idx=0)\n    (26): Embedding(3, 2, padding_idx=0)\n    (27): Embedding(3, 2, padding_idx=0)\n    (28): Embedding(5, 3, padding_idx=0)\n    (29): Embedding(5, 3, padding_idx=0)\n    (30): Embedding(5, 3, padding_idx=0)\n    (31): Embedding(5, 3, padding_idx=0)\n    (32): Embedding(5, 3, padding_idx=0)\n    (33): Embedding(5, 3, padding_idx=0)\n    (34): Embedding(5, 3, padding_idx=0)\n    (35): Embedding(5, 3, padding_idx=0)\n    (36): Embedding(5, 3, padding_idx=0)\n    (37): Embedding(5, 3, padding_idx=0)\n    (38): Embedding(5, 3, padding_idx=0)\n    (39): Embedding(6, 4, padding_idx=0)\n    (40): Embedding(5, 3, padding_idx=0)\n    (41): Embedding(5, 3, padding_idx=0)\n    (42): Embedding(5, 3, padding_idx=0)\n    (43): Embedding(5, 3, padding_idx=0)\n    (44): Embedding(5, 3, padding_idx=0)\n    (45): Embedding(5, 3, padding_idx=0)\n    (46): Embedding(5, 3, padding_idx=0)\n    (47): Embedding(5, 3, padding_idx=0)\n    (48): Embedding(6, 4, padding_idx=0)\n    (49): Embedding(5, 3, padding_idx=0)\n    (50): Embedding(5, 3, padding_idx=0)\n    (51): Embedding(5, 3, padding_idx=0)\n    (52): Embedding(6, 4, padding_idx=0)\n    (53): Embedding(8, 5, padding_idx=0)\n    (54): Embedding(8, 5, padding_idx=0)\n    (55): Embedding(9, 5, padding_idx=0)\n    (56): Embedding(5, 3, padding_idx=0)\n    (57): Embedding(3, 2, padding_idx=0)\n    (58): Embedding(3, 2, padding_idx=0)\n  )\n  (_gru): GRU(258, 128, batch_first=True)\n  (_top_classifier): Linear(in_features=128, out_features=32, bias=True)\n  (_intermediate_activation): ReLU()\n  (_head): Linear(in_features=32, out_features=1, bias=True)\n)"}, "version": 25}
{"obj": {"type": "AssignString", "path": ["custom_run_name"], "value": "id-5"}, "version": 26}
{"obj": {"type": "LogFloats", "path": ["monitoring", "cpu"], "values": [{"value": 21.0, "step": null, "ts": 1657607109.8205893}]}, "version": 27}
{"obj": {"type": "LogFloats", "path": ["monitoring", "memory"], "values": [{"value": 4.7974853515625, "step": null, "ts": 1657607109.8205893}]}, "version": 28}
…
